ai/fraud_detection_nn.pth (torch, 7172 bytes, 7 tensors)

fc1.weight f4 [32, 9]
-0.7709063 -0.041068863 -0.14940853 -0.39719948 -0.10419853 -0.026243567 -0.026521873 -0.26250792
0.26555485 0.54295826 0.040864587 0.33668375 0.09603028 0.038423575 0.036640916 -0.01981733
0.14539172 -0.20045449 -0.23992537 -0.030324558 -0.15431976 -0.13463266 -0.19265524 -0.16126333
0.016196514 0.115791276 -0.13420637 0.9962785 0.21192227 -1.0699488 -0.25504798 -0.36544886
-0.3200373 0.07830047 -0.37072125 -0.7246598 -0.58871734 -0.09567865 -0.058116242 -0.087627664
-0.071790166 -0.031789355 0.012775158 0.03843787 -0.17210138 0.7629453 -0.02443558 -0.7204232
1.1666167 -0.012590862 0.004248821 0.07594228 -0.20012057 0.26489758 -2.7535298 -0.008048893
-0.22433887 -0.0765311 -0.013050664 0.004712218 0.012992406 -0.004715362 0.019102653 11.848802
0.0069228625 -0.024764614 -0.0017805034 -0.009448783 -0.023386803 0.01441764 0.051482648 -0.02213677
-0.61157006 -0.12839967 -0.065125346 -0.22877108 -0.027344285 -0.10412869 0.14480537 -0.03536179
0.2912174 0.09822587 -0.083812624 -0.22415227 -0.17530414 -0.13602263 -0.015931671 -0.34067193
-0.09407049 -0.056765765 0.52958876 0.020272532 0.395317 -0.019077534 -0.061325118 0.014604304
0.009448756 -0.15779702 0.17371278 0.051777437 -0.0017111343 -0.6617179 0.042807154 -0.018550184
0.008072317 0.033349298 0.041379098 -0.019961134 0.45178607 0.048415188 -0.3473965 0.09463826
-0.015690401 0.03389269 0.04292788 0.123159714 -0.10628973 0.40887293 0.06301267 0.08891214
-0.008910927 -0.058627743 -0.18006906 0.021713357 0.27632144 -0.2558652 3.6711044 0.01437486
-0.29107124 -0.22439975 -0.005924325 -0.03291839 0.044573877 -0.08543459 0.16218929 -0.35453302
-0.124837495 -0.06396434 -0.2859823 -0.044295374 -0.1359333 -0.0060168263 -0.10395758 0.07252837
-0.14365721 -0.14632554 -0.17372078 -0.14206457 -0.06676467 0.025038976 0.111817405 0.19066343
-0.22101702 0.3706577 -0.11405078 0.3597033 -0.114691064 0.005199467 -0.045094427 0.0057238
0.039646912 -0.03016518 0.40923485 0.117913336 -0.02731931 -0.27999792 0.0034710844 -0.08295187
0.22668709 0.30111712 0.10183463 -0.20149013 -0.026796667 -0.17918892 -0.22676978 -0.2659117
-0.0055171293 -0.036015343 0.016592205 0.26161167 -0.44179964 0.010346836 -0.0546785 -0.21056755
-0.2132891 -0.10697882 -0.008680575 0.011984168 -0.21543965 0.0020274185 0.0036243738 0.8039522
-0.006814134 -0.008450747 -0.0046984665 -0.0052466234 0.20109706 -0.17675039 1.2888494 0.025098514
0.35253596 0.43530047 0.0026660534 -0.036410358 -0.017032916 0.063978896 0.02308183 0.58192694
-0.05962423 -0.3623082 0.090146 0.019329961 -0.008757483 -0.01369034 0.115125135 -0.12974174
-0.33556974 0.0006616057 -0.37461177 1.546842 0.0277887 -0.007221634 -0.00726936 -0.05827216
0.09656604 -0.43768817 -0.12058612 -0.2570186 -0.3502477 -0.008928989 -0.015966825 0.022367418
-0.27975267 -0.017380485 0.96072817 -0.022971937 0.5197656 0.2017422 0.029464902 0.0039990353
0.0005490053 0.076693304 -0.118409224 0.5062371 -0.19373198 -0.057204522 0.2912003 0.087912224
-0.15695491 0.11477426 -0.288019 0.10526056 -0.28496915 -0.023028491 -0.31700334 0.8936688
00000000: 1e5a 45bf d337 28bd 8dfe 18be bb5d cbbe
00000010: 0a66 d5bd c0fc d6bc 6644 d9bc 7067 86be
00000020: cef6 873e 50ff 0a3f a061 273d d061 ac3e
00000030: 86ab c43d 0a62 1d3d c914 163d f457 a2bc
00000040: 91e1 143e f143 4dbe ffae 75be 356b f8bc
00000050: 0006 1ebe 25dd 09be 6a47 45be 3722 25be
00000060: 8dae 843c fa23 ed3d 656d 09be 1c0c 7f3f
00000070: 2702 593e 15f4 88bf a695 82be 1d1c bbbe
00000080: eedb a3be ff5b a03d 2dcf bdbe 4e83 39bf
00000090: 2eb6 16bf 2bf3 c3bd 4c0b 6ebd 2276 b3bd
000000a0: b906 93bd 8e35 02bd e54e 513c 0771 1d3d
000000b0: 583b 30be 6250 433f 202d c8bc a86d 38bf
000000c0: b253 953f e749 4ebc b239 8b3b a087 9b3d
000000d0: 68ec 4cbe a8a0 873e d539 30c0 81df 03bc
000000e0: 17b9 65be 56bc 9cbd 74d2 55bc f368 9a3b
000000f0: 1ade 543c 5383 9abb 2b7d 9c3c b194 3d41
00000100: 2ed9 e23b 29df cabc c85f e9ba 11cf 1abc
00000110: ae95 bfbc f737 6c3c 78df 523d 2c58 b5bc
00000120: db8f 1cbf 347b 03be 7060 85bd f742 6abe
00000130: 1f01 e0bc 6c41 d5bd dc47 143e 86d7 10bd
00000140: 721a 953e a52a c93d f4a5 abbd 2c88 65be
00000150: ee82 33be 8449 0bbe 2383 82bc 8d6c aebe
00000160: 07a8 c0bd 3883 68bd 2193 073f 9512 a63c
00000170: fd66 ca3e 7d48 9cbc 0c30 7bbd e446 6f3c
00000180: f5ce 1a3c 8b95 21be c3e1 313e 9414 543d
00000190: 2448 e0ba 5866 29bf 8e56 2f3d 8ef6 97bc
000001a0: c041 043c 4699 083d 217d 293d 8885 a3bc
000001b0: 8150 e73e 014f 463d f4dd b1be b4d1 c13d
000001c0: 2889 80bc 10d3 0a3d 25d5 2f3d 293b fc3d
000001d0: 6eae d9bd cb57 d13e c90c 813d 9117 b63d
000001e0: 23ff 11bc a523 70bd 0664 38be 36e0 b13c
000001f0: 017a 8d3e c300 83be 60f3 6a40 8884 6b3c
00000200: 4a07 95be 0cc9 65be d720 c2bb 6fd5 06bd
00000210: 1993 363d 55f8 aebd f314 263e 5a85 b5be
00000220: cdaa ffbd bcff 82bd 466c 92be 116f 35bd
00000230: 1932 0bbe cc28 c5bb b6e7 d4bd c189 943d
00000240: e01a 13be 5dd6 15be dce3 31be 6079 11be
00000250: eabb 88bd 8a1e cd3c 8600 e53d 463d 433e
00000260: 4952 62be d9c6 bd3e 7593 e9bd 082b b83e
00000270: 26e3 eabd 4a60 aa3b efb4 38bd b78e bb3b
00000280: cd64 223d f81c f7bc 3b87 d13e 8c7c f13d
00000290: bfcc dfbc e35b 8fbe 227b 633b ace2 a9bd
000002a0: a920 683e 062c 9a3e ad8e d03d 6e53 4ebe
000002b0: af84 dbbc 4d7d 37be 5636 68be 9425 88be
000002c0: 09c9 b4bb d384 13bd 60ec 873c f7f1 853e
000002d0: 9033 e2be c785 293c 90f6 5fbd 059f 57be
000002e0: 7568 5abe b617 dbbd f838 0ebc 3e59 443c
000002f0: 369c 5cbe 70de 043b e786 6d3b d0cf 4d3f
00000300: 1949 dfbb 0075 0abc 98f5 99bb deeb abbb
00000310: 63ec 4d3e 0efe 34be 04f9 a43f 669b cd3c
00000320: 987f b43e b4df de3e f4b8 2e3b 0723 15bd
00000330: 9d88 8bbc 5e07 833d 1b16 bd3c 2af9 143f
00000340: 8938 74bd 7680 b9be 779e b83d de59 9e3c
00000350: 8c7b 0fbc 734d 60bc bac6 eb3d 05db 04be
00000360: cccf abbe 9b6f 2d3a 1dcd bfbe ebfe c53f
00000370: 21a5 e33c 75a3 ecbb d033 eebb caae 6ebd
00000380: 6ac4 c53d aa18 e0be dbf5 f6bd f197 83be
00000390: ab53 b3be e54a 12bc dccc 82bc e03b b73c
000003a0: be3b 8fbe 8561 8ebc 48f2 753f a52f bcbc
000003b0: 5c0f 053f 8295 4e3e 6160 f13c 570a 833b
000003c0: 1feb 0f3a 6111 9d3d 8980 f2bd c198 013f
000003d0: ad61 46be 4a4f 6abd 3518 953e 530b b43d
000003e0: cab8 20be c40e eb3d 3a77 93be d992 d73d
000003f0: 7ae7 91be 3fa6 bcbc 434e a2be 7ac7 643f

fc1.bias f4 [32]
1.2804948 -1.8317263 0.106390536 0.71621686 -0.45159358 -0.24813816 -0.52014565 0.123265915
-0.76343066 0.74854296 -1.9166329 2.421976 2.2144887 -1.5421172 0.44633132 -0.13085902
0.38379642 -1.4726961 -0.38757244 0.20015036 0.0030122239 -1.7153035 -1.1637967 2.186596
-1.4358141 -0.2901983 -1.397687 -1.1782548 -0.92986846 0.8685437 0.25705165 -0.71803725
00000000: 41e7 a33f 0276 eabf 48e3 d93d fd59 373f
00000010: 4637 e7be ee17 7ebe 4428 05bf d772 fc3d
00000020: 3170 43bf 83a0 3f3f 3a54 f5bf a801 1b40
00000030: 2fba 0d40 1964 c5bf 8a85 e43e e8ff 05be
00000040: f780 c43e 4e81 bcbf e56f c6be 37f4 4c3e
00000050: bb68 453b 118f dbbf 4af7 94bf 30f1 0b40
00000060: c2c8 b7bf df94 94be 68e7 b2bf 0ed1 96bf
00000070: dc0b 6ebf e158 5e3f 469c 833e 4ad1 37bf

fc2.weight f4 [16, 32]
0.06792587 0.4714858 -0.6050612 -0.37294677 -0.03001779 1.1156436 -0.24983916 0.08992772
-0.035264924 -0.019785156 0.27926522 -0.25434732 -0.43257 0.26817578 -0.3961266 -0.8215951
-0.46357426 0.32907912 -0.46389738 -1.7395235 -0.2112626 0.55655456 0.34202713 -0.65108645
1.5131067 -0.30872533 0.45104232 0.1742464 0.7587472 -0.79172534 -0.25868753 0.26310563
0.36126006 0.39012644 0.74610513 2.8716595 0.78011674 -1.1494447 0.9319427 -4.4098616
0.6888814 0.92496586 -0.24387287 -0.79840267 0.8039525 0.7739842 -0.7563894 0.8814498
1.38953 -0.060784407 0.6738996 1.7714524 0.5626567 -0.08143103 0.020806894 0.8650928
-0.75182104 0.13770369 -0.14401321 0.4507657 -0.20878413 0.51301855 0.014788067 0.85876364
0.34616947 0.21055809 0.014281792 -0.14229076 0.01712034 -0.43081573 0.6576115 -0.07990682
-0.049686722 0.13393016 0.087416455 0.7704059 0.3896923 0.09782315 -0.14624819 0.5070797
0.21452647 0.2689412 0.24529606 -0.29017884 0.20965399 -0.06507476 -0.25652057 0.32909334
-0.9380614 0.048259217 -0.07005593 0.11361502 -0.009370311 -0.2937767 -0.18740869 0.06900536
-0.2616153 -0.058595654 0.3390402 -0.8137241 0.09758759 0.43094656 -1.6394912 -0.01842232
0.29389155 -0.03650659 0.04370087 -0.55349356 0.54826844 0.104833506 -0.050496414 0.031553898
0.41816628 -0.5434537 0.05697292 1.041798 0.293395 -0.12914522 0.21149914 0.36783275
0.5914161 0.0588014 0.20737697 -0.0038269497 0.38649377 -0.5114186 -0.33160314 0.25327012
-0.25302717 0.31143573 -0.26906243 0.06495261 0.05788938 0.034028478 1.0340621 -4.825741
-0.2965123 -0.29540807 0.47081915 0.27768883 -0.022545716 -0.043787997 -1.5585659 1.3862332
0.24829352 0.18899858 0.058190953 0.37072086 0.232638 0.23156682 0.02359939 -0.23143406
0.47549036 -0.116341144 0.20024545 0.14170691 0.26125744 -0.0033080643 -0.2561573 -0.2899468
-0.29034102 0.37854105 0.7994791 -0.23161206 1.5102905 -0.27162468 0.06706944 0.20743024
2.7673926 0.37669042 0.29554135 -0.49195668 -0.52561337 0.48374948 0.09331948 1.8250324
0.18831405 0.3205547 0.68536246 0.8296388 1.8143393 -0.04243004 0.049324814 -0.6132967
-0.5286801 1.0363346 0.24696544 0.072195075 -0.39913216 -0.53786874 1.2710247 1.9452223
0.38596004 -0.34356347 0.2545314 -0.27468535 -0.06344746 0.79397655 -1.2671478 0.11754508
0.037679635 0.29060277 -0.31747988 -0.1973001 0.87154984 0.08531494 -0.014751527 -0.71322423
0.6057277 -0.22458969 -0.12187863 0.41052654 -0.03892133 -0.16885164 0.13386646 0.8990544
0.15891173 -0.5304395 -0.08892924 0.027364364 0.33417946 -0.64814913 -0.036292035 0.020466983
-0.17288113 -0.059924375 0.7983073 1.1201473 1.0714085 -1.0691507 -1.7940131 -3.7943716
1.476591 0.7730706 -0.3137127 0.5260653 0.47770044 0.85627586 -0.25042117 1.4855428
0.9432284 -0.20610934 0.8744253 1.8721753 0.3933802 -0.12379084 0.28904805 0.48957193
-0.13985033 1.2525442 0.11485547 0.47860765 -0.8585308 0.11615421 0.69379264 1.225224
00000000: b81c 8b3d 9666 f13e 4ae5 1abf e1f2 bebe
00000010: dee7 f5bc 69cd 8e3f d6d5 7fbe 062c b83d
00000020: f471 10bd 7b14 a2bc dafb 8e3e d039 82be
00000030: d179 ddbe 564e 893e 1bd1 cabe 0e54 52bf
00000040: 9b59 edbe 0f7d a83e f583 edbe b5a8 debf
00000050: 3955 58be 5c7a 0e3f 2e1e af3e 9aad 26bf
00000060: 7bad c13f 3f11 9ebe 05ef e63e a66d 323e
00000070: 423d 423f 83ae 4abf b172 84be c8b5 863e
00000080: 14f7 b83e a7be c73e bf00 3f3f 45c9 3740
00000090: bbb5 473f 0121 93bf cc93 6e3f 961d 8dc0
000000a0: 885a 303f 90ca 6c3f cfb9 79be 1e64 4cbf
000000b0: d5cf 4d3f d423 463f bca2 41bf b2a6 613f
000000c0: 1edc b13f 12f9 78bd af84 2c3f f4be e23f
000000d0: 450a 103f 50c5 a6bd 3873 aa3c b976 5d3f
000000e0: 5877 40bf 3202 0d3e 3378 13be c3ca e63e
000000f0: 82cb 55be 2f55 033f a649 723c efd7 5b3f
00000100: 203d b13e 8a9c 573e 2dfe 693c abb4 11be
00000110: f53f 8c3c e193 dcbe 3a59 283f 30a6 a3bd
00000120: 4e84 4bbd fd24 093e 6607 b33d 5239 453f
00000130: c085 c73e 8157 c83d 16c2 15be facf 013f
00000140: d4ac 5b3e a9b2 893e e42e 7b3e 5292 94be
00000150: 89af 563e ea45 85bd aa56 83be ec7e a83e
00000160: cb24 70bf 75ab 453d 7c79 8fbd feae e83d
00000170: ef85 19bc e669 96be 10e8 3fbe af52 8d3d
00000180: 71f2 85be ff01 70bd ad96 ad3e 3950 50bf
00000190: 01dc c73d 07a5 dc3e d9da d1bf 68ea 96bc
000001a0: f478 963e ef87 15bd afff 323d c1b1 0dbf
000001b0: 525b 0c3f f3b2 d63d 54d5 4ebd a93e 013d
000001c0: e419 d63e c81f 0bbf 705c 693d a359 853f
000001d0: df37 963e a53e 04be 3b93 583e 9354 bc3e
000001e0: 0c67 173f bdd9 703d a15a 543e 90cd 7abb
000001f0: 83e2 c53e 54ec 02bf e3c7 a9be 9fac 813e
00000200: c78c 81be 8174 9f3e 8dc2 89be e005 853d
00000210: 6a1d 6d3d 7261 0b3d 265c 843f 786c 9ac0
00000220: 76d0 97be ba3f 97be 350f f13e 3b2d 8e3e
00000230: cbb1 b8bc 0b5b 33bd 167f c7bf 1770 b13f
00000240: a840 7e3e d888 413e a359 6e3d 20cf bd3e
00000250: a838 6e3e da1f 6d3e 8253 c13c 0dfd 6cbe
00000260: 7973 f33e 4444 eebd 250d 4d3e 9e1b 113e
00000270: 89c3 853e 1ccc 58bb 0d27 83be e873 94be
00000280: 94a7 94be 22d0 c13e aaaa 4c3f b62b 6dbe
00000290: 3351 c13f 6412 8bbe b45b 893d 9868 543e
000002a0: f61c 3140 91dd c03e 3251 973e bfe1 fbbe
000002b0: 998e 06bf 03ae f73e 491e bf3d a99a e93f
000002c0: 66d5 403e bf1f a43e ea73 2f3f 3563 543f
000002d0: 453c e83f 1fcb 2dbd d108 4a3d 0301 1dbf
000002e0: 9457 07bf 9da6 843f 82e4 7c3e 03db 933d
000002f0: 0d5b ccbe c4b1 09bf f0b0 a23f 0bfd f83f
00000300: 8e9c c53e 8de7 afbe f151 823e 8fa3 8cbe
00000310: bef0 81bd 0c42 4b3f e631 a2bf 7abb f03d
00000320: f655 1a3d e3c9 943e b98c a2be 0a09 4abe
00000330: e41d 5f3f 99b9 ae3d 64b0 71bc dd95 36bf
00000340: f810 1b3f d7fa 65be 819b f9bd 8930 d23e
00000350: f96b 1fbd 72e7 2cbe 4a14 093e 6e28 663f
00000360: c2b9 223e e2ca 07bf 8920 b6bd 3b2b e03c
00000370: 9219 ab3e 1aed 25bf f5a6 14bd 60aa a73c
00000380: c007 31be 4373 75bd de5d 4c3f fd60 8f3f
00000390: ea23 893f eed9 88bf 39a2 e5bf fcd6 72c0
000003a0: ef00 bd3f f4e7 453f f39e a0be 37ac 063f
000003b0: 2795 f43e e534 5b3f 3437 80be 4426 be3f
000003c0: 6b77 713f 540e 53be 56da 5f3f 71a3 ef3f
000003d0: 2169 c93e 0d86 fdbd 1bfe 933e 2ca9 fa3e
000003e0: ed34 0fbe 5e53 a03f 5839 eb3d 100c f53e
000003f0: adc8 5bbf 42e2 ed3d 659c 313f 24d4 9c3f

fc2.bias f4 [16]
-1.1234385 0.63906765 1.3183578 -0.29106656 0.8606176 -0.92019904 -0.07943684 0.5456066
-0.27146497 0.9393227 -1.5174137 1.1490834 1.0292139 -0.5846992 1.344452 1.320375
00000000: d5cc 8fbf f099 233f f3bf a83f ad06 95be
00000010: 6f51 5c3f 2a92 6bbf c8af a2bd e0ac 0b3f
00000020: 75fd 8abe 7477 703f 9d3a c2bf 2a15 933f
00000030: 48bd 833f d9ae 15bf 0117 ac3f 0c02 a93f

fc3.weight f4 [8, 16]
-1.3777611 0.26250327 0.20551603 -0.058692295 -0.077310085 -0.625134 -0.26793778 0.4932609
-0.14400199 0.42371842 -1.0724667 0.7678718 0.34870398 -0.3593946 -0.3847095 0.3978722
0.5308135 -0.63709545 0.29320753 0.6754357 -0.05367565 -0.31793404 0.7848475 -0.67653525
-2.8226192 -0.89470214 0.54758465 -0.26247996 -2.6343303 -3.2083995 0.17519563 1.0114455
-0.31013495 0.20154299 0.14019911 0.11553318 0.40260512 -0.48999795 0.056518693 -0.2765585
0.044614088 0.6716882 -1.249185 1.0875481 0.37294465 -0.15297884 0.09897403 0.2508839
-1.3960983 0.2957411 0.47033727 0.026491236 -0.2542345 -0.11692355 0.16007544 0.13262701
0.12186902 0.47832882 -0.99667263 0.4913822 0.12466907 -0.018730102 0.036428403 0.28014407
0.09516696 0.13772556 -0.5248969 -0.09306698 0.1865246 0.516005 -0.28498846 -0.056742907
-0.33809656 -0.3039792 -0.08751559 0.5718229 0.13958731 0.2166107 0.5177468 -0.35744652
-1.2775568 0.76592964 -0.023567092 -0.18965794 0.14177373 0.41371307 -0.17248501 0.8506403
-0.070239194 -0.25248182 1.2219205 0.9552762 0.14551134 -0.22998759 0.048812833 -0.22220041
0.20437977 0.28896314 -0.06452714 -0.1379363 0.28704035 -0.11573911 -0.30352324 0.05914803
-0.27432707 -0.5182635 -0.23369624 0.85501724 0.08811956 0.15369263 0.4241995 -0.39899778
0.64414763 -1.1870103 -0.5115343 0.13813893 -1.3210862 0.43715775 -0.033399582 0.30726784
0.11883701 0.37575322 1.997127 -0.9733887 0.44994932 -0.8912271 -1.6109756 -0.13107653
00000000: 7a5a b0bf d466 863e cb72 523e 5567 70bd
00000010: c054 9ebd c808 20bf 242f 89be b18c fc3e
00000020: 4275 13be 9ff1 d83e 9746 89bf 3f93 443f
00000030: 5489 b23e 9202 b8be a5f8 c4be e8b5 cb3e
00000040: 65e3 073f b018 23bf 4c1f 963e 5be9 2c3f
00000050: 00db 5bbd 40c8 a2be c4eb 483f 6a31 2dbf
00000060: cba5 34c0 330b 65bf 822e 0c3f c663 86be
00000070: de98 28c0 6b56 4dc0 7c66 333e 0c77 813f
00000080: 02ca 9ebe 4961 4e3e 5b90 0f3e a99c ec3d
00000090: 4222 ce3e 03e1 fabe 2580 673d 1399 8dbe
000000a0: 43bd 363d c2f3 2b3f 4be5 9fbf c734 8b3f
000000b0: 9af2 be3e 7ca6 1cbe e5b2 ca3d db73 803e
000000c0: 59b3 b2bf 616b 973e 0cd0 f03e 2604 d93c
000000d0: 062b 82be 9d75 efbd d1ea 233e 60cf 073e
000000e0: 7796 f93d 84e7 f43e f025 7fbf 7396 fb3e
000000f0: 7f52 ff3d df6f 99bc f335 153d 0b6f 8f3e
00000100: e5e6 c23d ee07 0d3e a55f 06bf e799 bebd
00000110: 4e00 3f3e e718 043f 02ea 91be 406b 68bd
00000120: fe1a adbe 29a3 9bbe 603b b3bd fc62 123f
00000130: faef 0e3e 32cf 5d3e 0e8b 043f 3b03 b7be
00000140: fb86 a3bf f713 443f c60f c1bc b135 42be
00000150: 222d 113e 33d2 d33e e99f 30be 90c3 593f
00000160: 91d9 8fbd 4c45 81be e467 9c3f fb8c 743f
00000170: ed00 153e de81 6bbe f7ef 473d 8188 63be
00000180: ee48 513e faf2 933e ce26 84bd 2c3f 0dbe
00000190: f4f6 923e a008 edbd 6667 9bbe 3445 723d
000001a0: 9974 8cbe ebac 04bf 114e 6fbe 69e2 5a3f
000001b0: 0778 b43d 9a61 1d3e ad30 d93e 7049 ccbe
000001c0: dce6 243f f4ef 97bf e9f3 02bf 4b74 0d3e
000001d0: 5a19 a9bf 24d3 df3e 00ce 08bd 3652 9d3e
000001e0: d160 f33d ba62 c03e dca1 ff3f 0030 79bf
000001f0: c25f e63e 7627 64bf 7334 cebf ed38 06be

fc3.bias f4 [8]
0.12221601 0.43606377 1.1106986 0.58071476 0.74148786 0.46429938 0.5995742 -0.90222085
00000000: 634c fa3d c043 df3e 5f2b 8e3f b9a9 143f
00000010: 26d2 3d3f a6b8 ed3e b27d 193f f2f7 66bf

fc4.weight f4 [1, 8]
-0.21541359 1.4736452 -0.38406742 -0.21823935 -0.029936053 -0.5729822 -0.13106361 2.6033382
00000000: 6195 5cbe 68a0 bc3f 7ca4 c4be 237a 5fbe
00000010: 743c f5bc f6ae 12bf 8a35 06be 189d 2640
